best_brain.pt (torch, 27837 bytes, 2 tensors)

w1 f4 [20, 240]
-2.6487124 1.4344308 -1.628549 1.6224339 -0.5007248 0.34670326 -2.4307888 2.0883636
-0.6655097 -0.9662694 0.17304721 0.62205505 0.6126789 -0.18799774 -0.3860985 0.6775711
1.1777542 0.7469082 -0.656522 0.0060542123 0.5031127 -0.015222073 1.2893367 -0.45293605
0.8410862 0.70734566 0.4954241 1.4393296 0.45958954 0.19679475 -0.029126719 0.3876137
-0.85788184 -1.2359748 -0.19395357 0.27613547 -0.20715228 0.630056 0.3360018 -0.19185562
0.630691 -0.32732457 0.22109479 -0.8466242 -0.10997689 0.5261021 -0.21551895 0.27501142
0.4096498 -0.17742527 -0.54006743 -0.22488254 -0.41334206 -0.16089343 -0.060390055 -0.3459317
0.893141 0.62455416 0.08386722 0.53536844 -0.710568 0.827523 -1.4426113 0.60883313
0.10741733 -0.6654194 0.4422859 0.3410244 -0.030606747 0.5773648 -1.5578086 0.7630422
-1.4607791 0.270466 0.36475584 2.2857332 -0.10349848 0.70176524 0.3860021 1.188381
0.57756054 -0.8927587 -0.6068966 -0.0021807104 0.54426426 -0.8475334 0.017997764 -0.20678836
0.29839182 0.118220136 -0.24400613 -1.6203068 1.4773307 0.1929147 0.3716437 -0.9169739
-0.42520288 -0.05465594 -0.17792855 -0.8562186 0.22031356 1.1815441 0.7302219 -0.059487775
0.36559355 -0.7680809 0.8098687 -0.0775432 0.41968435 0.3186925 -0.22967222 0.968753
0.11308961 0.9325886 -0.0031146407 -0.23677832 0.45078284 -0.3236047 0.8844702 -0.64467525
-0.6645304 1.6964259 -0.41642106 0.22863825 0.14290327 0.16464522 -0.20721823 1.2501371
-0.4007697 -0.21887904 -0.18747091 1.4679881 1.1589012 0.50756043 -0.7567036 -0.48275366
0.29862192 -0.23999646 -0.96001285 -0.15584081 0.077719994 -0.30284673 -0.7970788 -0.5406354
0.3749376 0.27396137 -0.09820978 0.18641946 1.3996631 0.7385458 -0.19265243 0.76931936
-1.4440517 -0.036932442 -0.662014 -0.30026525 0.61202633 0.42444032 -0.14410143 -1.7142179
0.08351978 -0.08033791 0.52507615 1.7535067 0.30942374 -0.59257126 -0.7270124 0.7322226
0.21995303 0.05777759 -0.8117596 -1.0117011 -0.10724093 0.22715878 -1.4995272 0.07502485
-0.43134153 0.58795154 0.500464 0.71608734 -0.6068199 0.091469966 -0.08617067 -0.001195401
-0.63214934 -2.086837 -0.19821486 0.34901017 0.58935034 0.33999163 -1.349826 -0.7582469
0.69134694 -0.69301873 0.048969984 0.3034315 0.102705196 0.5457255 0.4421426 0.20224795
-0.30721617 -0.26936463 -0.35550606 0.57651705 -0.39413506 -0.5804291 0.6985321 -0.11734992
0.3594291 0.062008053 -1.2242539 -0.040504277 -0.14293465 -0.5017149 0.42763853 0.050939977
-0.047467552 -0.09352325 0.76366186 -0.6725553 1.2044494 -0.0748216 0.50929976 0.11593434
0.36724493 1.0967445 -0.76111096 0.059505135 0.037603617 0.0094155595 0.11259602 0.9776764
-1.1540352 0.72013605 -0.7878345 -0.896062 0.6413075 0.12927765 -0.38867128 0.10900438
0.37932283 1.3842529 0.96392703 0.35159826 1.8128526 -0.5239583 -1.8581159 -1.8382515
-1.2254553 2.0597966 0.30895188 -1.6670109 -0.22159374 -0.51750207 -0.48199818 -0.6432117
00000000: 8184 29c0 6e9b b73f 4b74 d0bf eaab cf3f
00000010: 802f 00bf 1783 b13e 0b92 1bc0 c0a7 0540
00000020: d85e 2abf 6e5d 77bf 4a33 313e 003f 1f3f
00000030: 86d8 1c3f 7b82 40be b4ae c5be 4d75 2d3f
00000040: a6c0 963f 6035 3f3f d311 28bf 6a62 c63b
00000050: fecb 003f 0066 79bc fc08 a53f 3ce7 e7be
00000060: 6d51 573f 9b14 353f 3aa8 fd3e f43b b83f
00000070: 524f eb3e 9084 493e 289b eebc 4e75 c63e
00000080: 259e 5bbf 6c34 9ebf c49b 46be a161 8d3e
00000090: ba1f 54be 5a4b 213f 6e08 ac3e cd75 44be
000000a0: f774 213f 1697 a7be ac66 623e 5dbc 58bf
000000b0: 903b e1bd a1ae 063f 00b1 5cbe 4cce 8c3e
000000c0: 9ebd d13e f8ae 35be dc41 0abf 9c47 66be
000000d0: 92a1 d3be 3fc1 24be 905b 77bd f61d b1be
000000e0: e3a4 643f c8e2 1f3f 94c2 ab3d e80d 093f
000000f0: c9e7 35bf 8cd8 533f 7da7 b8bf 7ddc 1b3f
00000100: 9efd db3d ed58 2abf 4c73 e23e c09a ae3e
00000110: 00bb fabc 2ece 133f 4666 c7bf bc56 433f
00000120: cffa babf 857a 8a3e 47c1 ba3e 7449 1240
00000130: 03f7 d3bd e3a6 333f 11a2 c53e de1c 983f
00000140: 02db 133f d68b 64bf 935d 1bbf 40ea 0ebb
00000150: e754 0b3f f3f7 58bf 0c70 933c 54c0 53be
00000160: d0c6 983e 661d f23d bedc 79be 3766 cfbf
00000170: 2c19 bd3f 6e8b 453e 1548 be3e cdbe 6abf
00000180: 31b4 d9be e8de 5fbd e732 36be 2431 5bbf
00000190: e199 613e d63c 973f d3ef 3a3f 74a9 73bd
000001a0: 142f bb3e f3a0 44bf 8e53 4f3f f8ce 9ebd
000001b0: dee0 d63e aa2b a33e 322f 6bbe 3200 783f
000001c0: 879b e73d 20be 6e3f 001f 4cbb 0476 72be
000001d0: 02cd e63e 84af a5be a46c 623f 7009 25bf
000001e0: aa1e 2abf 7c24 d93f 2435 d5be 2520 6a3e
000001f0: 3c55 123e c298 283e 0431 54be 7e04 a03f
00000200: b031 cdbe d421 60be 60f8 3fbe 09e7 bb3f
00000210: e056 943f 7bef 013f 54b7 41bf 7d2b f7be
00000220: f9e4 983e a2c1 75be 67c3 75bf bc94 1fbe
00000230: a92b 9f3d ba0e 9bbe 5b0d 4cbf 1567 0abf
00000240: d2f7 bf3e aa44 8c3e 3622 c9bd bee4 3e3e
00000250: 2928 b33f 5611 3d3f ae46 45be 1df2 443f
00000260: b0d6 b8bf 7946 17bd c079 29bf 5ebc 99be
00000270: c2ad 1c3f 3e50 d93e 538f 13be 7e6b dbbf
00000280: 6b0c ab3d 3488 a4bd 646b 063f e872 e03f
00000290: ca6c 9e3e c0b2 17bf 7c1d 3abf f172 3b3f
000002a0: 5e3b 613e 32a8 6c3d 7acf 4fbf 6c7f 81bf
000002b0: 22a1 dbbd 509c 683e 82f0 bfbf a1a6 993d
000002c0: ccd8 dcbe fe83 163f 691e 003f 8051 373f
000002d0: 8d58 1bbf 9b54 bb3d 407a b0bd 00af 9cba
000002e0: 8ad4 21bf bd8e 05c0 d6f8 4abe 76b1 b23e
000002f0: aadf 163f 6213 ae3e 19c7 acbf 781c 42bf
00000300: 1dfc 303f ad69 31bf c094 483d 605b 9b3e
00000310: 1a57 d23d abb4 0b3f 8460 e23e 161a 4f3e
00000320: 704b 9dbe 29ea 89be e404 b6be 9f96 133f
00000330: 12cc c9be 0097 14bf 00d3 323f 2855 f0bd
00000340: 1707 b83e 28fc 7d3d 5ab4 9cbf d0e7 25bd
00000350: 765d 12be 6370 00bf 70f3 da3e 70a6 503d
00000360: 566d 42bd 1e89 bfbd 587f 433f 962c 2cbf
00000370: 662b 9a3f 113c 99bd 7861 023f fc6e ed3d
00000380: 8707 bc3e 2062 8c3f 2bd8 42bf a8bb 733d
00000390: 4006 1a3d b843 1a3c be98 e63d 0049 7a3f
000003a0: 6db7 93bf d65a 383f 86af 49bf 5264 65bf
000003b0: ba2c 243f 5c61 043e ecff c6be b03d df3d
000003c0: 9a36 c23e 332f b13f ecc3 763f b004 b43e
000003d0: 8e0b e83f 2222 06bf bed6 edbf d34b ebbf
000003e0: b8db 9cbf b5d3 0340 f12e 9e3e 9d60 d5bf
000003f0: 78e9 62be 047b 04bf 77c8 f6be 86a9 24bf

w2 f4 [240, 7]
-1.382841 0.7339553 2.6048188 -1.3270717 0.26052663 0.18010555 -2.102948 -0.30985022
2.8896036 0.75110644 1.0748713 0.769901 4.787796 4.104827 -2.3643777 3.123041
0.24184649 -1.3900344 -1.144167 -4.523027 -6.014871 -1.7626876 1.1629764 0.75204915
0.8287322 -0.08111122 -2.433605 -0.20952968 -0.2976822 1.6041701 1.7197785 -1.6158122
0.83702195 5.4945326 6.5523043 -0.19806507 0.7357452 -1.6005267 -2.1992366 -0.2023772
-3.729695 0.30764207 -0.6435547 3.3754525 1.5187595 1.2860317 0.73715085 -3.2789066
-3.371505 0.31775945 -0.4735536 1.243281 -0.8321424 0.74925864 0.45390517 -3.197787
0.6000122 -0.2958513 -0.007848173 -0.05344563 0.060174353 -0.24388364 0.85369164 0.55689096
0.86901397 0.62761563 0.646089 1.0523543 -0.7579977 0.97939485 0.06107208 -0.37698475
-0.72276306 -0.9093731 1.0892985 -0.022520691 -0.01177825 -0.28311235 0.61273384 -0.9083378
-0.71739215 0.21296844 0.61652684 0.4232064 -0.24412467 -0.3801667 0.122326285 0.7983219
-0.7078098 -0.14212047 0.12133059 0.41469896 -0.7773158 0.05549985 0.33827326 -0.6901115
0.13533181 -0.038692176 0.13252401 -1.1726476 0.3150839 0.12220012 0.019987285 1.062186
0.0021562874 -0.5943985 0.65053844 0.08301148 0.38353294 0.17048794 -0.13458496 -0.08688253
0.08926959 -0.26401073 -0.82155037 -0.36065698 -0.06962541 0.4811067 -0.54035074 0.31966266
-0.47979182 -0.81241775 0.04963973 -0.4009443 0.14879718 0.21670493 -0.6705058 0.41789567
0.1751495 -0.4966619 -0.001684323 -0.4278896 -0.4309936 0.14522249 0.26918018 0.2934567
-0.29166332 -0.6161381 -0.4204893 -0.0011067986 -0.1060617 -0.0022639334 0.43233326 -0.66926515
0.5069543 -0.16046554 -0.16222668 -1.074794 -0.627263 0.4061666 -0.1780433 -0.020575777
-0.81800777 0.81352174 0.5592921 0.510352 0.16220835 -0.17827283 0.29246873 0.4906518
1.0794101 -1.4912457 0.6440474 -0.6059574 -0.2320291 -0.36376297 0.72284657 -0.40215883
-0.018652514 -0.624691 -1.2761135 -0.002420783 0.24473035 0.036817998 -0.7112979 0.13994169
0.6302902 -0.3360448 1.6435618 -0.47989762 0.5514476 -0.24428107 -0.29108986 -1.4171531
-0.0011485666 0.8949827 0.0068241954 0.4946149 -0.5464344 0.47649032 0.9564578 0.09438048
0.06912792 -0.05939155 1.0815192 0.40450907 -0.28723827 0.26280355 0.90321267 -0.6754481
0.6789068 0.23863274 -0.48694938 1.1132045 -0.71376026 0.028008878 -0.1968056 0.17112163
-0.15761608 -0.21760954 0.9022809 -1.1938331 0.7383827 1.6431813 -0.7118934 -0.48858112
1.0059054 -0.5818018 1.13831 -0.49889988 -0.717028 -0.2771797 0.35597134 0.5037432
-0.11069068 -0.341238 0.4764307 0.45458615 -0.36420447 0.33042082 0.7202496 -0.6352249
0.806727 -0.41516286 0.008627549 0.23868592 -0.16999263 0.2280518 -0.0025805533 -0.15454713
-0.586082 0.38972765 -0.21051271 -0.3647222 -0.0996857 0.52113897 -0.03296344 -0.633631
-0.37468094 0.326216 0.28755188 0.99193335 -1.1439976 0.43610948 0.053033575 -0.10866547
00000000: ef00 b1bf 7fe4 3b3f 5ab5 2640 7cdd a9bf
00000010: bf63 853e 976d 383e b396 06c0 b0a4 9ebe
00000020: 44ef 3840 8348 403f 6295 893f 3b18 453f
00000030: a035 9940 be5a 8340 f751 17c0 e7df 4740
00000040: 9ba6 773e a6ec b1bf 1074 92bf a3bc 90c0
00000050: d379 c0c0 bf9f e1bf 69dc 943f 4b86 403f
00000060: cb27 543f a41d a6bd 2fc0 1bc0 f38e 56be
00000070: cd69 98be 7255 cd3f b421 dc3f efd2 cebf
00000080: 1247 563f 36d3 af40 7aac d140 92d1 4abe
00000090: cc59 3c3f 0fde ccbf 4bc0 0cc0 f83b 4fbe
000000a0: 53b3 6ec0 4383 9d3e 00c0 24bf 6a07 5840
000000b0: b666 c23f b09c a43f ebb5 3c3f 9bd9 51c0
000000c0: bdc6 57c0 5eb1 a23e 9e75 f2be d523 9f3f
000000d0: 4907 55bf 6acf 3f3f 4266 e83e 8ba8 4cc0
000000e0: 669a 193f d279 97be a095 00bc cee9 5abd
000000f0: 6279 763d a2bc 79be 898b 5a3f 6890 0e3f
00000100: b377 5e3f 6bab 203f 1766 253f 8cb3 863f
00000110: 230c 42bf 9fb9 7a3f b826 7a3d 2504 c1be
00000120: 0007 39bf adcc 68bf 226e 8b3f 507d b8bc
00000130: 90f9 40bc 1af4 90be 20dc 1c3f d388 68bf
00000140: 03a7 37bf 6614 5a3e b4d4 1d3f 82ae d83e
00000150: d1fb 79be 36a5 c2be 3486 fa3d d35e 4c3f
00000160: 0633 35bf 0788 11be 2c7c f83d 6c53 d43e
00000170: 2bfe 46bf d053 633d 2732 ad3e 26ab 30bf
00000180: 6c94 0a3e b07b 1ebd 60b4 073e 5119 96bf
00000190: ad52 a13e 0e44 fa3d 60bc a33c b6f5 873f
000001a0: 8050 0d3b 802a 18bf b089 263f ec01 aa3d
000001b0: 6e5e c43e 6494 2e3e a4d0 09be 78ef b1bd
000001c0: fad2 b63d 6a2c 87be 2051 52bf 08a8 b8be
000001d0: c497 8ebd 9e53 f63e 6d54 0abf d3aa a33e
000001e0: 46a7 f5be 9cfa 4fbf 0853 4b3d 9248 cdbe
000001f0: 4a5e 183e e6e7 5d3e 45a6 2bbf 6cf6 d53e
00000200: 645a 333e 784a febe 80c4 dcba 5814 dbbe
00000210: 31ab dcbe 34b5 143e fcd1 893e f53f 963e
00000220: e554 95be 3abb 1dbf 604a d7be 0012 91ba
00000230: e036 d9bd 805e 14bb c95a dd3e f654 2bbf
00000240: c2c7 013f 1451 24be c01e 26be da92 89bf
00000250: 4f94 20bf 12f5 cf3e fc50 36be 888e a8bc
00000260: f568 51bf f642 503f c42d 0f3f 6ea6 023f
00000270: f219 263e 278d 36be 76be 953e b636 fb3e
00000280: 1c2a 8a3f 24e1 bebf 4ae0 243f 0620 1bbf
00000290: 0999 6dbe 243f babe 790c 393f c3e7 cdbe
000002a0: 28cd 98bc c0eb 1fbf b057 a3bf 00a6 1ebb
000002b0: 989a 7a3e 78ce 163d 9f17 36bf e04c 0f3e
000002c0: b35a 213f 100e acbe 3c60 d23f 24b5 f5be
000002d0: ab2b 0d3f d124 7abe bb09 95be 4665 b5bf
000002e0: 808b 96ba 961d 653f 809d df3b 2a3e fd3e
000002f0: 20e3 0bbf 8af6 f33e 6bda 743f 8e4a c13d
00000300: f092 8d3d 8e44 73bd 396f 8a3f d01b cf3e
00000310: e510 93be 308e 863e f238 673f 2bea 2cbf
00000320: d6cc 2d3f 245c 743e 6e51 f9be 7c7d 8e3f
00000330: feb8 36bf e072 e53c 6887 49be 823a 2f3e
00000340: 1c66 21be 09d5 5ebe e2fb 663f 86cf 98bf
00000350: a606 3d3f c453 d23f a53e 36bf 4e27 fabe
00000360: 82c1 803f f6f0 14bf 24b4 913f ce6f ffbe
00000370: 268f 37bf 7fea 8dbe e041 b63e 50f5 003f
00000380: ccb1 e2bd bfb6 aebe baee f33e 84bf e83e
00000390: 0279 babe eb2c a93e 4762 383f 199e 22bf
000003a0: a985 4e3f 3a90 d4be 905a 0d3c 156a 743e
000003b0: 8c12 2ebe 6986 693e 801e 29bb 9a41 1ebe
000003c0: 7809 16bf 628a c73e a590 57be debc babe
000003d0: 0428 ccbd 5d69 053f ac04 07bd a435 22bf
000003e0: 2ed6 bfbe c905 a73e 003a 933e 58ef 7d3f
000003f0: 836e 92bf be49 df3e bc39 593d 008c debd
