best_brain.pt (torch, 31677 bytes, 2 tensors)

w1 f4 [24, 240]
00000000: 4952 94c0 dbc5 4640 b486 95bf 0568 4bbd
00000010: 89ce c73d 5c30 87be 0b77 4f3f 70d8 243f
00000020: 2c29 0a3f 6956 493e 9028 bf3e 5a92 b7be
00000030: e9f9 963f 63ab 453f 79c3 9ebe 0a08 c73e
00000040: 3431 d2be 4952 7c3e 6e2d 72bd 3c4d 283c
00000050: dad4 033f 2fe1 2b3f 2c23 573e d5e5 eabe
00000060: b010 1fbf 3d7e 8abe 8ab4 8a3f 8d04 e4be
00000070: 075a 51be a5d2 963d 4d68 8bbe dc94 c7be
00000080: ce55 9ebf a7ad 9fbf c17d 13bf 1b42 1cbf
00000090: 6a6b 30bf 3267 7abf 39a1 6e3e bacc c6be
000000a0: a0fc 803f 9e49 0bbe d20d fcbe deb7 843e
000000b0: 1c9e a23f 446b ffbe d1f1 7f3e d786 0d3f
000000c0: 207c abbe 4a51 15bf ef82 0dbf bf71 063f
000000d0: 3382 1c3f 9fbf dd3e ab9a ccbe 0ef3 c9be
000000e0: d459 96bf dacf adbf ee27 483f 6a8d 643d
000000f0: b664 833f e873 16bf a4db a8be dac0 8a3f
00000100: f659 d4bd 9e7d 84be 0503 e8be 52f0 81be
00000110: 27f5 e63e 6147 933e 77a4 35bf f0cb 6ebe
00000120: 74b6 adbe b604 cb3d 5454 f33e 7d71 653f
00000130: 349c 15be e75d 013f ed82 363f 6595 63bf
00000140: 3309 6a3d 7c0a b7bd 18be 6b3f 442a 683e
00000150: 2d30 f4be 1842 7abe 14a8 9a3f 887e 2b3f
00000160: 6ce9 eb3c 13a3 24bf 9215 15bf 0ae8 f93d
00000170: b84b d13d 14b7 ffbe e894 ecbe c57c b53d
00000180: b25a 90be e80b 8f3e d35b 693f 607b 6a3f
00000190: 8ecd a33f bdaf e0be 4f66 f4be d123 053f
000001a0: b7df 1dbe 0be2 7b3e 66a8 b13d aa2d 263e
000001b0: 5ec1 4bbe 3286 73be 943f 3c3f 581b 32be
000001c0: 1cba 2b3f 1931 c93e 7cbb 153f 4817 0dbe
000001d0: 7144 62bf b075 163f 68d0 8c3d b13c b2be
000001e0: 1712 cc3e f210 b7bd 7cb3 073f 14df 2fbd
000001f0: 67d3 ba3d 85c8 dc3e 22ea 323f b2b5 45bf
00000200: eaa9 d5be 9673 82be 9160 cbbf 8a93 4bbf
00000210: 170b dcbe 6689 e23e 30c8 9d3d 16df 96bf
00000220: 4636 893d ab18 a2bf 7b3b 3f3e 6fec 0ebf
00000230: cef4 e2be 3754 4ebe 6509 75bf b89c 823e
00000240: b2fb 433f 71f9 403f f84b 243e 490b 093d
00000250: 5e43 1d3e 59b9 7d3e 519d f93e 276c 2b3f
00000260: 7763 83be 3abf 203f 081b 143f 2336 a93e
00000270: e8fc c6be ecab 5a3d 4ae6 ebbe 3c6b 77be
00000280: 8590 1fbf 238f bd3d de37 3e3e 6f6c 0cbe
00000290: 78d1 463f f8c5 8b3e e3c9 3ebf 0049 12ba
000002a0: ac9a 9cbe 2444 e5be 0007 04bf 3903 2c3f
000002b0: 938f bb3d 47c2 a0bf f06f 50bf 6fda eb3d
000002c0: 8e87 bc3d 04d6 99be 0c07 d0be 0c4a d5bc
000002d0: 02e5 34bf 5b8b 75be 842c 413f a8c4 a13e
000002e0: d449 ad3e f84a 21bf 49c7 0f3f 1cc3 28bd
000002f0: 3a6e b0be 96c7 5d3f cb20 cf3e 36ac c43e
00000300: aa9c 0c3f 2d2c 033e 3e22 f33e be38 5c3e
00000310: 92f8 8cbd b445 32bf 4aa5 babf 06f2 c9bd
00000320: 8059 e93d 86a2 ea3e f886 ca3e ccb9 363f
00000330: 943a 893c b361 2a3e d6b6 183f 447c f2be
00000340: dbdd 803e e0cf 673f 8bf9 f63e a618 f6bc
00000350: bfe3 6abe 1053 9e3f 19a3 1a3e 5ec9 823e
00000360: 4a11 60be 540b f83e 7215 0f3f 5750 68bf
00000370: 2880 45bf 4465 943e fcae 80bf dfc2 823f
00000380: 9d6d 043f 6dfa 4b3f d2eb 3d3e 8a80 e8be
00000390: c71b 66bf d496 8bbd 9ec4 8e3e c408 76be
000003a0: 4165 91be 59d9 3e3f eacf c1bf f237 433f
000003b0: 60f8 9fbe 08c4 363e 1d61 f93e a5e5 9c3f
000003c0: 6f99 65c0 3f91 87bf 0128 343f 5126 9dbf
000003d0: 830d 6e3f ce08 8dbf 49a9 163f 574e 9bbe
000003e0: 54cf 8b3e 48df 4e3f 6cd5 2fbf 2c64 93be
000003f0: c825 803e bb06 0dbf 1907 acbe 8656 e13c
-4.6350446 3.1058261 -1.1681733 -0.049659748 0.0975619 -0.26404083 0.8104102 0.6439276
0.53969073 0.19661869 0.37335634 -0.35853845 1.1795017 0.7721464 -0.3100851 0.3887332
-0.41053164 0.24640764 -0.059125356 0.01027232 0.5149666 0.6714048 0.21009511 -0.45878473
-0.6213484 -0.27049437 1.0836346 -0.44534722 -0.20444499 0.07364396 -0.27228013 -0.38980758
-1.2369936 -1.247487 -0.5761376 -0.6103837 -0.689139 -0.97813714 0.23303689 -0.3882807
1.0077095 -0.13602301 -0.49229294 0.2592153 1.2704501 -0.49886525 0.2499459 0.55283874
-0.33493137 -0.5832716 -0.55277914 0.5251731 0.6113617 0.43310258 -0.39961752 -0.3944325
-1.1746163 -1.3579056 0.7818593 0.055798925 1.026511 -0.5877061 -0.32980072 1.0840104
-0.10368721 -0.25877088 -0.45314804 -0.25378662 0.4510891 0.28765395 -0.7095408 -0.23319983
-0.33928263 0.09913008 0.47525275 0.89626294 -0.14610368 0.5053391 0.71293527 -0.8889983
0.05713768 -0.089375466 0.92086935 0.22672373 -0.47693005 -0.24439275 1.2082543 0.66989946
0.028797828 -0.6431133 -0.5823604 0.12202461 0.1021952 -0.49944365 -0.46207356 0.088616885
-0.28194195 0.2793877 0.9115574 0.91594505 1.2797105 -0.43884078 -0.47734305 0.52007776
-0.15417372 0.24597947 0.086746976 0.16228357 -0.19897982 -0.2378166 0.7353451 -0.17393243
0.67080855 0.3929527 0.58489203 -0.13778412 -0.88385683 0.58773327 0.06875688 -0.3481193
0.3985755 -0.08938779 0.53008246 -0.042937353 0.09122353 0.43121734 0.6988851 -0.7723037
-0.41731197 -0.2547881 -1.5888845 -0.79522 -0.4297721 0.44245452 0.07704198 -1.178683
0.06699805 -1.2663778 0.18675034 -0.5582952 -0.44327396 -0.20149313 -0.9571746 0.25510192
0.7655593 0.7538062 0.16044605 0.033458028 0.1535773 0.24777736 0.48752835 0.669619
-0.25661823 0.6279179 0.57853746 0.33049116 -0.38864827 0.053386614 -0.46074134 -0.24162
-0.62329894 0.09255817 0.18575999 -0.13713239 0.77663374 0.27299476 -0.74526805 -0.0005580336
-0.30586755 -0.4477855 -0.5157318 0.6719242 0.09158244 -1.2559289 -0.81420803 0.11516272
0.092055425 -0.30046093 -0.40630376 -0.026036285 -0.7066194 -0.23978941 0.7545855 0.3159535
0.3384539 -0.6300502 0.5616346 -0.041201696 -0.34459096 0.8663267 0.40454707 0.38412637
0.5492655 0.1280982 0.47487062 0.2150602 -0.068833485 -0.6963761 -1.4581692 -0.098606154
0.11394024 0.4582712 0.39556098 0.71377254 0.016751565 0.16638832 0.59653986 -0.47360432
0.25169262 0.9055157 0.4823726 -0.03004105 -0.2293844 1.2369099 0.1510128 0.25544256
-0.21881595 0.48446143 0.558921 -0.9074759 -0.77148676 0.2898351 -1.0053401 1.021572
0.51729757 0.79678994 0.1854699 -0.45410568 -0.89886135 -0.068158776 0.27884382 -0.24026781
-0.28397563 0.74550396 -1.5141575 0.7625724 -0.31244183 0.17848217 0.48706904 1.2257582
-3.5874898 -1.05912 0.7037354 -1.2277318 0.9298937 -1.1018312 0.5885206 -0.30333206
0.27306616 0.8080945 -0.6868503 -0.28787363 0.25028825 -0.55088395 -0.33599165 0.027507078

w2 f4 [240, 7]
00000000: 6130 3dc0 7220 873e 81a6 d040 f15a 95c0
00000010: 3fc9 2a40 49b9 babf 1bfb b4c0 50e5 debf
00000020: de68 2040 be19 e2bf 86b1 1e40 e4a1 77bf
00000030: ae08 d740 064f 8b40 1558 a8c0 5ebd 063f
00000040: d477 38bf ce59 14c0 2327 0b3f dc4b efc0
00000050: f16d 19c1 22a2 40c0 48a2 2840 caa8 4abf
00000060: 758a 56c0 e9dc e43f 3f6c 8bc0 eee9 653d
00000070: bbb1 f9be 1c72 713e 6521 b03e f2d2 9b3d
00000080: 056b 503e 9f53 27be 23ad ffbe 7dbc 13bf
00000090: 9071 82bf b399 0a3e 2fb9 753f 4a18 653f
000000a0: 0611 2e3e 3d05 ecbe 0283 353e 36d5 a1be
000000b0: 20c6 72bc ed10 75be fe73 683f 1919 923f
000000c0: 1012 dd3e 51f9 09bf e87c 67bf 7b74 7c3e
000000d0: dae9 0d3e 00c8 a0bd 6780 533f 8413 963d
000000e0: 319b cbbf e65c 003e 0740 053f 758e edbd
000000f0: 143a 02be 49dc 4ebf 3503 313f 1d95 79be
00000100: 89a3 25be 0b06 653f 3c25 093f efad 873f
00000110: 7240 bc3d 02cb 403f 5ca4 fdbe 5ad1 77be
00000120: 1cdc 62bc ad46 fcbe 0b24 0e3e 6672 403e
00000130: ce4b 40bf 6310 54be 69ee 9f3f ddc2 bb3e
00000140: 46a7 03bf 11c7 3dbf 24e8 dc3e 0a0b ee3e
00000150: 7c98 82be a246 99bf a8e6 9c3d 98ad 43bf
00000160: 9f63 09be 7cac a0be bfec b13e 2bb7 b7bf
00000170: 9f0a e03e 3298 293e e7d1 cb3d 07c8 dabe
00000180: 70a8 b93e 9e2c 7b3f 4745 a8be b338 1a3f
00000190: 7299 45bf d62c 993e 892c 553e c2b1 bebe
000001a0: 402e a6be 0252 bfbe c1fb cebd 4458 93bd
000001b0: 0861 213e ab91 0abf 569a 2c3e 425e 043f
000001c0: 49fd 8b3f 50d8 b4be 745e 04bf 40e3 a43d
000001d0: a039 c2be a08d 533e 6291 e03e 6f40 383d
000001e0: 4171 17bf 2834 f13e 1ae6 05bf 2362 86be
000001f0: 0c5c 80be 6819 4abe 125f bfbe e14c cbbd
00000200: e396 213f 9acd 7e3f 0833 453f 7e53 b13e
00000210: 0df3 233f 8987 be3d f2e9 41bf 8886 82bb
00000220: 3a25 ca3d 6b7a 7d3f ccf0 99bf 8ea4 1c3e
00000230: 0951 7a3f ce5d 7dbf 3dd8 053f db9f 02bf
00000240: 1e68 ebbd bff6 0abf e15e a3be 3690 89bf
00000250: 77da 0cbd d487 583d 4b2c 78bd c28f b4be
00000260: f755 a1bd 1ed2 b5be df07 74bd da61 813f
00000270: 461c 713e 22f2 3f3f e099 d03e 1e27 24be
00000280: b90b 1ebf 744c 46bf 7ca6 91be 59bb 90be
00000290: fc9c c9bc 5a02 eb3e 4cca e93e 9ee7 6c3e
000002a0: ff70 9fbe c9f9 a93e dfcc 123f 14ef 56be
000002b0: 9656 1bbf efb7 da3e d80c a83f ec57 09bd
000002c0: d96c 65bf 85fb 4f3f df13 923f a6c2 42bf
000002d0: 561e 003f a6ad 803e 38bb e73e a689 753f
000002e0: 6f12 9ebe ea9e 51bf 5162 35bf b205 cd3e
000002f0: 55dc 95be 006b c43e 9c5e 9dbf d62f 3e3e
00000300: 278a e7be a172 acbf ab69 d8bd 120b 97bf
00000310: 76d3 8abd d817 78be 79f0 9e3f ab7c c3bf
00000320: bfb4 10bf 538f 87be 65bb 5f3f a226 acbe
00000330: eb20 563f e80d 733e 0222 843e 3bfd fc3d
00000340: b01d c4be b210 9b3d d004 053e 2b2c 833e
00000350: f828 97be 5ee3 813f 19e4 69bf 560d 1fbf
00000360: 9603 dd3f cb2c 5ebe 8219 bd3d 8a2b 4dbf
00000370: dad5 d63d 1874 8abd 33ac 4dbf 98b1 523f
00000380: 89f0 ec3d 6c0d 183f a2bf 1bbe fe18 fbbd
00000390: f907 85bf cc61 a23d 40c5 bd3b e013 0abf
000003a0: 3841 693e b8c5 ec3d f0bc 2d3f 184b d23f
000003b0: 3f25 27bf 0009 403f 521d ad3e c9d3 79bf
000003c0: c251 bf3e d525 95be bad9 1ebf 38e2 393e
000003d0: db0c 96be 4c2f 6bbe 69f5 9abe 8e39 813e
000003e0: 8665 b3be a507 2cbe a12d a63e a816 c6be
000003f0: 93e6 47bf b9d3 153d c9e5 4b3e 1619 d4bd
-2.9560778 0.2639194 6.520325 -4.6673512 2.668533 -1.4587795 -5.6556525 -1.7413731
2.5064006 -1.7664106 2.4795852 -0.967314 6.7198095 4.3533964 -5.260752 0.526327
-0.72057843 -2.3179812 0.5435659 -7.47801 -9.589341 -3.0098958 2.6349049 -0.791638
-3.3522007 1.7879916 -4.3569636 0.056131296 -0.4876841 0.23578686 0.34400478 0.07608594
0.20353325 -0.16340493 -0.4993678 -0.57709485 -1.0190907 0.13535194 0.9598569 0.8949019
0.16998681 -0.46097746 0.17725757 -0.3160798 -0.0148177445 -0.23932238 0.9080199 1.1413909
0.43177843 -0.5389605 -0.90424967 0.24653809 0.13858739 -0.07850647 0.826178 0.07327941
-1.5906736 0.12535438 0.5205082 -0.11599437 -0.12717468 -0.8080488 0.6914552 -0.24373288
-0.16175665 0.89462346 0.5357244 1.0599955 0.091919795 0.75309765 -0.4953946 -0.24200955
-0.0138464235 -0.4927267 0.13880937 0.1879364 -0.7511567 -0.20709376 1.2494632 0.36672106
-0.51427114 -0.74131876 0.4314586 0.46492797 -0.2550696 -1.197468 0.07661182 -0.7643676
-0.13416909 -0.31381595 0.34750935 -1.4352773 0.43758103 0.16561964 0.09952145 -0.42730734
0.3626132 0.98114955 -0.32865354 0.60242766 -0.77187264 0.2991702 0.2081777 -0.37244993
-0.3245716 -0.37367254 -0.10106612 -0.0719457 0.1575967 -0.5412852 0.1685575 0.51706326
1.0936671 -0.35321283 -0.51706624 0.08051157 -0.3793459 0.20659494 0.43860918 0.044983324
-0.59157187 0.47110105 -0.5230423 -0.26246747 -0.25070226 -0.19736254 -0.3737722 -0.09926773
0.6312086 0.99532473 0.7703099 0.34634012 0.6404274 0.09303195 -0.757476 -0.0039833225
0.09870382 0.9901492 -1.202661 0.15297148 0.977799 -0.9897126 0.5228308 -0.5102517
-0.11494468 -0.54282755 -0.31908324 -1.0747135 -0.03438803 0.05286391 -0.060589116 -0.35265929
-0.078777246 -0.3551187 -0.05957782 1.0107987 0.23545942 0.7497884 0.40742397 -0.16030547
-0.6173664 -0.7746041 -0.2844733 -0.28267935 -0.024610989 0.45900232 0.45662153 0.2313523
-0.31140897 0.33198383 0.5734386 -0.20989639 -0.60678995 0.42718455 1.312892 -0.033531114
-0.89619213 0.81243163 1.1412314 -0.7607826 0.5004629 0.25132483 0.45260024 0.9591316
-0.3087344 -0.8188311 -0.70853144 0.40043408 -0.29269662 0.38362885 -1.2294497 0.18572935
-0.4522259 -1.3472482 -0.105670296 -1.1800253 -0.06778614 -0.24227846 1.2417136 -1.5272421
-0.56525797 -0.26476535 0.87395316 -0.33623224 0.8364398 0.23735774 0.25807196 0.123529874
-0.383039 0.07571544 0.12990117 0.25619635 -0.29523444 1.0147512 -0.91363674 -0.62129724
1.7266719 -0.21696775 0.09233381 -0.8014456 0.10490008 -0.067604244 -0.8034088 0.82302237
0.11569316 0.5939548 -0.15209821 -0.12260626 -1.0393058 0.079288095 0.0057913363 -0.53936577
0.22778785 0.11561149 0.6786642 1.6429167 -0.6529121 0.7501373 0.33811432 -0.97588784
0.37367064 -0.29130426 -0.62050974 0.18152702 -0.29306683 -0.22967261 -0.30265358 0.25239223
-0.35038394 -0.16799791 0.32456687 -0.3868916 -0.78086203 0.036578868 0.19911875 -0.10356347
