best_brain.pt (torch, 27837 bytes, 2 tensors)

w1 f4 [20, 240]
-2.6870053 0.794017 -1.5536697 1.2852424 -0.7686032 1.0200082 -1.6466696 2.1807225
0.22324339 -0.2698233 0.21053386 0.270203 -0.14914489 -0.040628582 0.098961994 -0.033215687
0.20130074 0.15899408 -0.01102276 0.025306929 -0.04951882 0.06820943 0.020722365 -0.047929935
0.04053944 0.09244844 0.055482354 0.071886145 -0.077416345 -0.14276212 0.006898664 0.09212254
-0.03045056 0.030706836 0.06768606 -0.082023084 -0.00512195 -0.11666065 0.115836695 0.010988269
0.14480582 -0.02852076 -0.07275149 -0.11401437 0.17213328 -0.11294193 -0.060267594 -0.035684716
-0.10453061 -0.023047473 0.17437023 -0.071296595 0.0391864 0.135917 -0.08527409 0.0041548572
-0.02478632 -0.07699233 0.110542685 0.06097662 -0.10099076 0.042803936 0.03190634 -0.017761473
-0.014746413 0.13865641 -0.08503801 0.032987297 0.05736191 0.07935234 -0.06536664 0.057832446
0.027317453 -0.029136706 -0.024282925 -0.027555697 -0.18547864 0.011220038 0.20822643 0.064781204
0.108475596 0.10503038 0.054956973 0.11138297 -0.059719585 -0.20916043 0.044664524 0.090252146
0.080794334 0.04538797 -0.09602176 -0.1904283 -0.059772804 -0.045234244 0.014583994 -0.045272008
-0.028294604 -0.08683234 -0.043089 0.048133872 0.10995004 -0.24890466 0.024797011 -0.036234863
0.092022836 -0.12698978 0.0533232 -0.16828714 0.05564228 0.011065379 -0.037912607 -0.018099109
0.24903923 -0.07238276 0.054940466 0.048085872 0.014963504 0.11918351 -0.15280874 0.042591423
-0.14122394 -0.0008273348 -0.055879988 0.11783534 0.089667656 0.11955139 -0.12695885 -0.1093565
0.07325591 -0.06518285 -0.014658019 -0.0035567544 0.056600876 -0.0056739114 -0.0015643388 0.112368315
0.11495677 0.0014630482 0.08050211 -0.07825283 -0.07874137 -0.13113141 0.16131988 0.03088529
0.086732246 0.05213978 0.06539722 0.28152746 -0.13282508 0.14843823 0.13519311 -0.006815139
-0.10549097 0.08246491 0.0946613 -0.033806194 0.07615663 0.2393705 -0.1300752 0.047652915
-0.071934104 0.088271275 -0.17249927 -0.050232228 0.13459054 0.15816602 -0.06959055 -0.025320956
0.015169935 -0.032139797 0.09824414 -0.13110058 -0.09730624 0.0964327 -0.014007291 -0.017337095
-0.03173572 0.17498639 0.12756643 0.10693891 -0.21202777 -0.03624112 -0.038787797 0.09850351
-0.2725819 0.18956174 -0.032253683 0.043337114 0.059060887 0.24757259 0.16775645 0.07322707
0.013032837 -0.0019985214 0.049916565 -0.04604915 -0.11277291 -0.12936282 0.19154157 -0.10827807
-0.071696386 -0.023585161 0.10682993 -0.0031839106 0.013400685 -0.0088311955 0.12082746 -0.05186463
0.030786648 0.0445835 0.0679524 0.15081425 0.07145717 0.041775912 0.047992546 0.08796978
0.026531432 -0.024214298 0.23929347 0.17050593 0.20166683 0.044442132 0.053640984 -0.059530307
-0.12069988 -0.25897104 -0.106264606 0.117335714 0.08609584 0.1364803 0.036337137 0.093439795
-0.115248434 0.15057155 0.10093228 0.08580182 0.23546767 -0.07939373 -0.11533269 0.18954684
0.15634334 1.6715106 0.7452286 0.98387045 0.66120857 -1.6756877 -2.990151 -1.8397818
-0.11104976 -0.0041471673 0.10563609 0.09906417 0.051759675 0.057333753 0.039178506 0.024242492
00000000: e5f7 2bc0 b344 4b3f a6de c6bf d382 a43f
00000010: 2ec3 44bf a18f 823f 12c6 d2bf f590 0b40
00000020: ea99 643e 4826 8abe 3096 573e 0c58 8a3e
00000030: 70b9 18be 286a 26bd 96ac ca3d 2c0d 08bd
00000040: c821 4e3e 58cf 223e ce98 34bc 7a50 cf3c
00000050: 3fd4 4abd 63b1 8b3d f3c1 a93c 2e52 44bd
00000060: af0c 263d 9c55 bd3d 7741 633d 0b39 933d
00000070: 768c 9ebd 3c30 12be 300e e23b beaa bc3d
00000080: 7473 f9bc e78c fb3c fd9e 8a3d b8fb a7bd
00000090: 08d6 a7bb c7eb eebd ca3b ed3d 2408 343c
000000a0: fa47 143e 5ea4 e9bc bcfe 94bd 5e80 e9bd
000000b0: b543 303e 194e e7bd 27db 76bd 232a 12bd
000000c0: 2514 d6bd 0ece bcbc 1c8e 323e f303 92bd
000000d0: eb81 203d d32d 0b3e 2fa4 aebd 7825 883b
000000e0: ae0c cbbc 28ae 9dbd 3464 e23d 9fc2 793d
000000f0: 3ed4 cebd 2e53 2f3d 39b0 023d 8280 91bc
00000100: f09a 71bc f2fb 0d3e 6828 aebd b01d 073d
00000110: 52f4 6a3d 7b83 a23d f2de 85bd b7e1 6c3d
00000120: dac8 df3c 1ab0 eebc fcec c6bc 7cbc e1bc
00000130: 1dee 3dbe 40d4 373c 4f39 553e 02ac 843d
00000140: 7428 de3d 2b1a d73d 901a 613d c11c e43d
00000150: 869c 74bd 272e 56be 26f2 363d 1ed6 b83d
00000160: 8077 a53d bce8 393d 0ea7 c4bd a3ff 42be
00000170: 54d4 74bd 8b47 39bd b4f1 6e3c 246f 39bd
00000180: 16ca e7bc 27d5 b1bd 177e 30bd 0628 453d
00000190: 7d2d e13d dde0 7ebe 1a23 cb3c 026b 14bd
000001a0: 7876 bc3d 9c09 02be 6e69 5a3d 7753 2cbe
000001b0: 29e9 633d 904b 353c 404a 1bbd 9544 94bc
000001c0: 2404 7f3e 6a3d 94bd 4109 613d b1f5 443d
000001d0: 7c29 753c 7c16 f43d e579 1cbe 5874 2e3d
000001e0: 029d 10be 80e1 58ba 6ae2 64bd a853 f13d
000001f0: ada3 b73d 5cd7 f43d 8001 02be 4df6 dfbd
00000200: 3207 963d 967e 85bd 3028 70bc 7018 69bb
00000210: 52d6 673d 38ec b9bb 800a cdba 5c21 e63d
00000220: 746e eb3d c0c3 bf3a 4ade a43d 0543 a0bd
00000230: 2843 a1bd 5047 06be 0a31 253e 2603 fd3c
00000240: ada0 b13d 8690 553d faee 853d 5e24 903e
00000250: 4c03 08be 3100 183e 1070 0a3e 8851 dfbb
00000260: a60b d8bd 5de3 a83d c9dd c13d 5d78 0abd
00000270: 02f8 9b3d 8a1d 753e 6f32 05be b42f 433d
00000280: 3052 93bd 92c7 b43d a6a3 30be 4fc0 4dbd
00000290: 1ad2 093e 46f6 213e 7e85 8ebd e56d cfbc
000002a0: 528b 783c 05a5 03bd 3934 c93d 3b3f 06be
000002b0: 7e48 c7bd 827e c53d d67e 65bc 8606 8ebc
000002c0: 50fd 01bd a22f 333e c6a0 023e ca02 db3d
000002d0: cf1d 59be 9271 14bd f4df 1ebd 35bc c93d
000002e0: db8f 8bbe 791c 423e 701c 04bd 4282 313d
000002f0: d4e9 713d ab83 7d3e 59c8 2b3e 13f8 953d
00000300: ae87 553c a0f9 02bb 5075 4c3d 099e 3cbd
00000310: 7cf5 e6bd b077 04be 7923 443e e5c0 ddbd
00000320: 8ed5 92bd ab35 c1bc a6c9 da3d 28a9 50bb
00000330: 8c8e 5b3c b8b0 10bc 6374 f73d 0270 54bd
00000340: 4834 fc3c 309d 363d a12a 8b3d 0d6f 1a3e
00000350: 2358 923d 381d 2b3d d593 443d 8029 b43d
00000360: 7258 d93c 105d c6bc 5909 753e 1b99 2e3e
00000370: c081 4e3e f408 363d a6b6 5b3d 0dd6 73bd
00000380: 8031 f7bd da97 84be 42a1 d9bd b54d f03d
00000390: 0453 b03d 7ec1 0b3e 40d6 143d 5d5d bf3d
000003a0: 5f07 ecbd 6e2f 1a3e 95b5 ce3d ddb8 af3d
000003b0: 701e 713e 2e99 a2bd 8c33 ecbd 9118 423e
000003c0: 7818 203e 0ff4 d53f 4dc7 3e3f efde 7b3f
000003d0: f744 293f ef7c d6bf a25e 3fc0 f87d ebbf
000003e0: 0e6e e3bd f6e4 87bb bc57 d83d 28e2 ca3d
000003f0: f401 543d ccd6 6a3d a479 203d 3198 c63c

w2 f4 [240, 7]
-1.5783126 1.1692982 1.3324974 -1.4617349 0.141184 -0.1693154 -2.7291722 -0.77152646
1.9100325 1.1212851 1.7895172 0.55287 4.5986004 4.324289 -1.9258839 3.0838687
0.99498785 -1.5846417 -1.662216 -3.7616224 -3.77016 -1.2077569 2.149217 0.8281595
1.5421997 0.15814677 -2.2383864 -1.1036072 -0.5837146 0.8925113 0.8751495 -1.6630414
1.0973859 5.1689277 5.949066 -0.85361457 -0.19657668 -1.2890816 -2.4577436 -1.3321186
-4.208459 -1.4905361 -0.83282727 2.9642768 1.6529256 1.4278677 0.3369418 -2.4247174
-3.4453273 0.98732513 -0.14505619 1.3550129 -0.49500358 0.5584942 -0.6255777 -3.301982
0.18437523 -0.0308614 0.060575742 0.037539344 0.01591764 -0.016197037 0.092709534 -0.11386072
0.039215636 0.17168213 0.06082935 -0.054823294 -0.008705 -0.04489784 -0.03837058 -0.06371036
0.15918386 -0.17676027 -0.042153113 0.08718461 0.22571924 0.079451144 -0.055003993 -0.17479432
-0.030587755 -0.13378869 -0.13267593 -0.031251147 0.043726455 -0.07554829 -0.09850329 -0.12080692
0.1582273 0.28105667 -0.039679613 -0.040776417 -0.13263781 -0.15632287 -0.046817698 0.02560804
0.0047023203 -0.01937168 -0.05040024 -0.0899546 -0.017886318 0.0010803863 0.024299935 0.0010226462
-0.26366308 0.05539669 0.08776897 -0.18714888 -0.10565065 0.048553757 0.049473077 0.026727304
0.15887001 -0.00017142482 0.045314692 -0.15905899 -0.069917515 0.1027389 -0.09889044 -0.097317025
-0.032993585 0.071000814 0.030836564 0.012746371 -0.01390808 0.0821236 -0.033834577 -0.058867466
0.059494443 -0.10939027 -0.22483198 -0.058850955 -0.005548738 0.049959093 -0.0502152 -0.1109107
-0.13027065 0.06321053 0.062987536 0.30632475 0.064642996 -0.09184181 0.21126948 -0.0812055
-0.042947486 -0.07729098 -0.064096816 -0.002841916 0.16379166 0.16954976 -0.35975352 -0.06537542
0.06312121 0.015107572 -0.053535596 -0.074856356 -0.027907807 -0.06416535 -0.09885767 -0.053616267
-0.013187585 -0.09458177 -0.023328045 0.20005514 -0.046070367 0.22177692 0.14807692 0.104710765
-0.006099156 0.18296957 0.13048042 -0.032429907 -0.022037966 0.11386062 0.08388926 -0.14174062
0.11158689 0.04923659 -0.07764575 0.056106977 -0.07100555 0.048415586 -0.02604011 -0.1320994
-0.0018696934 -0.10896045 -0.10241844 -0.04140309 0.10701959 -0.043040033 -0.23717126 -0.08852695
0.0886248 0.03925223 -0.033522308 0.043598548 -0.070387974 0.02898712 -0.076249294 -0.00061807036
0.009419002 0.023113312 -0.08060888 -0.12579465 0.02843102 0.14965288 -0.054181583 0.20712286
0.18750481 -0.14143063 0.20632973 -0.08164502 0.008158971 0.087778024 0.03435944 -0.08472162
0.2052789 -0.04269282 0.16559237 -0.07844681 -0.050927594 0.1340938 0.13903143 0.13372105
0.021752644 -0.0798713 -0.15926541 0.027260698 0.09715527 0.13679914 0.08759744 0.08701515
0.15488221 -0.014140073 0.032464337 -0.049627505 0.016153917 -0.12141219 0.041520108 0.101526596
-0.060084768 0.054204732 0.3839761 0.14112529 0.04989269 -0.115926564 -0.07489585 0.17841725
0.00899516 0.0102366535 0.10500997 0.043026477 0.02635755 0.054116372 -0.08443168 -0.014928345
00000000: 2606 cabf 90ab 953f 468f aa3f 211a bbbf
00000010: 8a92 103e 0461 2dbe c2aa 2ec0 c282 45bf
00000020: f27b f43f 4586 8f3f e60e e53f e388 0d3f
00000030: bc27 9340 9360 8a40 5d83 f6bf 1b5e 4540
00000040: 86b7 7e3f 8ad5 cabf 7ec3 d4bf 6cbe 70c0
00000050: 4d4a 71c0 c797 9abf c58c 0940 4302 543f
00000060: cd66 c53f 3af1 213e b941 0fc0 0043 8dbf
00000070: 526e 15bf 9f7b 643f cc09 603f 8ade d4bf
00000080: 2477 8c3f db67 a540 c05e be40 7c86 5abf
00000090: 664b 49be a000 a5bf ac4b 1dc0 dd82 aabf
000000a0: b2ab 86c0 e3c9 bebf 2b34 55bf b6b6 3d40
000000b0: 1193 d33f 5ec4 b63f a383 ac3e 922e 1bc0
000000c0: 3e80 5cc0 57c1 7c3f 9c89 14be 1071 ad3f
000000d0: 1c71 fdbe 7af9 0e3f dc25 20bf ac53 53c0
000000e0: dccc 3c3e 0cd1 fcbc 451e 783d dbc2 193d
000000f0: b665 823c a6af 84bc 7fde bd3d cf2f e9bd
00000100: 93a0 203d 71cd 2f3e 3228 793d 648e 60bd
00000110: 6b9f 0ebc cce6 37bd 782a 1dbd 947a 82bd
00000120: 1801 233e a500 35be bea8 2cbd d88d b23d
00000130: f222 673e 48b7 a23d de4b 61bd 48fd 32be
00000140: 2c93 fabc e7ff 08be 33dc 07be 3401 00bd
00000150: 831a 333d 10b9 9abd 18bc c9bd 9e69 f7bd
00000160: 5606 223e a9e6 8f3e 1787 22bd 2c05 27bd
00000170: 35d2 07be 1a13 20be eac3 3fbd f4c7 d13c
00000180: ec15 9a3b 5cb1 9ebc 7b70 4ebd 1e3a b8bd
00000190: 5486 92bc c09b 8d3a a810 c73c 500a 863a
000001a0: d9fe 86be a4e7 623d 38c0 b33d f5a3 3fbe
000001b0: 5e5f d8bd 4ee0 463d 48a4 4a3d 38f3 da3c
000001c0: d2ae 223e 80c0 33b9 e69b 393d 5ce0 22be
000001d0: ea30 8fbd c668 d23d 1287 cabd 264e c7bd
000001e0: 4824 07bd e068 913d f69c fc3c 28d6 503c
000001f0: b7de 63bc 6b30 a83d 2096 0abd 031f 71bd
00000200: 72b0 733d 0208 e0bd 5b3a 66be b30d 71bd
00000210: 30d2 b5bb e8a1 4c3d 74ae 4dbd 2625 e3bd
00000220: ab65 05be 8674 813d 9cff 803d 99d6 9c3e
00000230: 8c63 843d 8f17 bcbd 0757 583e 124f a6bd
00000240: b4e9 2fbd bc4a 9ebd 3145 83bd 703f 3abb
00000250: 00b9 273e 749e 2d3e 9d31 b8be 8ce3 85bd
00000260: b145 813d c085 773c 2448 5bbd 4a4e 99bd
00000270: ea9e e4bc 1f69 83bd e475 cabd bb9c 5bbd
00000280: be10 58bc 16b4 c1bd 751a bfbc 41db 4c3e
00000290: 48b4 3cbd 7d19 633e 7aa1 173e 9972 d63d
000002a0: 6edb c7bb 605c 3b3e a99c 053e 39d5 04bd
000002b0: f788 b4bc c22f e93d 22ce ab3d 7424 11be
000002c0: ab87 e43d 4eac 493d bc04 9fbd 6ed0 653d
000002d0: 5c6b 91bd 6c4f 463d 1252 d5bc 1145 07be
000002e0: 8010 f5ba a826 dfbd c2c0 d1bd 4996 29bd
000002f0: 162d db3d bf4a 30bd 06dd 72be 9e4d b5bd
00000300: eb80 b53d f2c6 203d b04e 09bd 6494 323d
00000310: 9227 90bd 6676 ed3c 9728 9cbd 0006 22ba
00000320: 2852 1a3c 2158 bd3c 4516 a5bd 50d0 00be
00000330: 2ce8 e83c 9b3e 193e 82ed 5dbd 0418 543e
00000340: 4301 403e 31d3 10be 1a48 533e 8135 a7bd
00000350: 34ad 053c f7c4 b33d 7cbc 0c3d 8782 adbd
00000360: a234 523e abde 2ebd 0c91 293e b9a8 a0bd
00000370: 7499 50bd e34f 093e 415e 0e3e 2cee 083e
00000380: 9a32 b23c 9093 a3bd 7916 23be d451 df3c
00000390: 58f9 c63d 1315 0c3e 4966 b33d 0035 b23d
000003a0: 7199 1e3e c4ab 67bc 53f9 043d 3646 4bbd
000003b0: 3855 843c f4a6 f8bd fd10 2a3d 2ded cf3d
000003c0: 721b 76bd c805 5e3d 8498 c43e 2683 103e
000003d0: 475c 4c3d e86a edbd ff62 99bd 03b3 363e
000003e0: 7060 133c a3b7 273c 780f d73d 883c 303d
000003f0: caeb d73c 21a9 5d3d 84ea acbd 0496 74bc
